Testing/client/mnist_cnn_model.pth (torch_old, 102471 bytes, 8 tensors)

weight f4 [10, 1, 5, 5]
000000 c0 0d 71 3e 14 0d 61 3e 72 87 a7 3e 76 1f 4f 3e
       0.23540401 0.21977645 0.32720524 0.20226845
000010 ee a2 0a 3e 02 de 35 3d ec 47 38 3e 9d 0c cc 3e
       0.13538715 0.044401176 0.17996186 0.39853373
000020 34 19 ec 3e 17 de 52 3e ed ae d1 3d fe 23 05 bd
       0.46112978 0.20592533 0.102384426 -0.032505028
000030 b2 fe e8 bd 04 8a 94 3e e3 80 ac 3e 2c 34 1f be
       -0.11376704 0.29011548 0.33692083 -0.15547246
000040 2a 25 52 be e3 f5 d4 bd 6a d5 34 3d 29 61 92 3e
       -0.2052199 -0.10398462 0.04414884 0.28589752
000050 8b a9 b3 be 9c 62 69 bd 60 c6 53 be a0 ea 32 3e
       -0.3509029 -0.056978807 -0.20681143 0.17472315
000060 5b b6 3e 3e 4c 1c ac 3d e9 44 81 3e 5a 0e a5 3e
       0.1862425 0.08403835 0.25247887 0.32237512
000070 99 ed 20 bd 90 b4 4c 3e 61 31 06 3d 9d e1 ae 3e
       -0.03928909 0.19990754 0.032761935 0.34156504
000080 11 ca 9c bc 8c 5b 25 3d 1b 52 79 bc 8b 0a 27 3e
       -0.019139322 0.04037051 -0.015217329 0.16312616
000090 68 1a e1 3e ed ea 56 3e 8b 94 5d be 02 15 a3 be
       0.4396546 0.20988055 -0.21638696 -0.31851965
0000a0 89 9a e4 3e 97 ef cc 3e 68 17 32 3e b6 12 70 be
       0.4464915 0.40026543 0.17391741 -0.23444638
0000b0 d8 03 d9 3d 6c c7 46 3d 63 1f e7 3d 09 63 b4 3d
       0.10596436 0.048530027 0.112852834 0.08807952
0000c0 6a a3 be be f8 e0 72 be 38 27 a2 3e f8 ca 6f 3e
       -0.3723405 -0.23718631 0.31670547 0.2341727
0000d0 ce b4 bf bb 62 70 b3 be 5b 39 eb be 4e 59 93 3e
       -0.005850411 -0.3504668 -0.45942196 0.28779072
0000e0 eb 70 0a 3e 58 a0 0b be d8 53 82 bd dd 96 c4 be
       0.13519637 -0.13635385 -0.06363648 -0.3839635
0000f0 be 60 76 3e 67 6d 63 3e 24 51 56 3d d6 28 8d 3e
       0.24060342 0.22209702 0.052323475 0.27570218
000100 66 d4 90 3d 8c bd 48 3e 0f d6 92 3e ad 51 e3 3e
       0.07071762 0.19603556 0.2867894 0.4439825
000110 d0 f7 a2 3e d0 4d 20 3e 32 49 81 bd f8 54 42 bd
       0.3182969 0.15654683 -0.06312789 -0.047444314
000120 8f 79 5e 3e d6 ad 29 3e 05 dd fb 3d f0 9f 0b 3b
       0.21726058 0.1657022 0.122980155 0.0021305047
000130 78 0e 7b 3e 68 92 b1 3e 9a 66 98 3e 94 10 f8 3e
       0.24517238 0.34682012 0.2976578 0.48450148
000140 f1 a5 78 be 81 88 38 be 4e 8f cb 3d 51 ec a5 3c
       -0.24282052 -0.18020822 0.099394426 0.020254286
000150 fe 78 56 3e fd 39 dd be af d8 dc be 4c 7d a5 be
       0.20944592 -0.43208304 -0.43134066 -0.32322156
000160 d1 eb 74 be c1 b2 5f 3e 02 59 99 be 80 db 8d be
       -0.23918082 0.21845533 -0.2995072 -0.27706528
000170 fe 15 c9 be b3 d6 38 be f4 69 2e 3d e8 b7 86 be
       -0.3927459 -0.18050651 0.042581514 -0.26312184
000180 c0 04 2d 35 bf 05 16 be 45 5c d4 3d f9 61 ed 3d
       6.4454434e-07 -0.1465063 0.103691615 0.115909524
000190 14 a9 8c be 7c 5a 72 be f5 07 7d 3d 17 33 b5 3c
       -0.27472746 -0.2366733 0.061775167 0.022119088
0001a0 49 2a 92 3e 16 aa 84 be 29 48 f2 be 7e a7 60 be
       0.28547886 -0.25911015 -0.4732068 -0.21938893
0001b0 81 43 9d 3e 82 54 bd 3e 4e 5b 2c bf 6a 2e 4c be
       0.30715564 0.36978537 -0.6732682 -0.1993958
0001c0 d9 50 00 3e 2b 56 66 3e 37 7a c6 3e ee 7d f5 be
       0.12530841 0.22493808 0.38765118 -0.4794764
0001d0 ed a2 9b be a6 80 9d 3c 42 9d eb 3e fc f4 91 3e
       -0.3039774 0.019226383 0.46018416 0.2850722
0001e0 c6 86 c7 be 1f a4 7d bd ad 23 da 3e c4 eb 98 3e
       -0.3897001 -0.061924096 0.42605343 0.29867375
0001f0 92 1e 3c 3e bc 29 ca 3b d4 0e 96 3d 29 2c 4a 3e
       0.18371037 0.006169526 0.07327047 0.19743408
000200 63 2a b6 3e c0 ae c6 3c 07 bc 93 3e 7e 83 96 3d
       0.35579214 0.02425325 0.2885439 0.07349299
000210 2c e3 15 3d dc da 58 3e c8 63 4a 3e c0 21 03 3f
       0.0365936 0.21177238 0.19764626 0.51223373
000220 6e d7 41 3e 3b 22 ed bd 5d ff 99 3e 8f 99 d2 3d
       0.18929836 -0.115787946 0.3007764 0.10283195
000230 44 c1 12 3e d9 e6 c1 bc ab 85 eb bd a5 c3 a4 3e
       0.14331537 -0.023669647 -0.115001045 0.32180515
000240 b5 5f 4e 3e b5 ea 42 3e 13 a9 fe bd 12 0a 14 be
       0.20153697 0.19034846 -0.12434592 -0.14456967
000250 39 50 fd 3d b3 86 9a 3e 55 d6 7c bd 59 1b 93 be
       0.12368817 0.30180892 -0.06172784 -0.28731802
000260 d3 60 de be 41 a1 7e be a2 49 a0 bd f7 7f f5 be
       -0.43433246 -0.24866201 -0.07826544 -0.47949192
000270 ea 6e ce be 4a 5f d8 be d9 6c a9 be 10 9a 86 bd
       -0.40318996 -0.422602 -0.33090857 -0.06572354
000280 04 fc e6 bd 2a 81 8d be bd 66 7a be 10 fb 93 3d
       -0.11278537 -0.27637607 -0.24453254 0.07225621
000290 9e ac b1 3d 7e 3b 3e 3e 63 87 e2 bd a7 1a 53 3d
       0.08675502 0.18577382 -0.11060979 0.05153909
0002a0 16 5b ac 3e 50 8d d0 3e e2 bc 2d 3e ae 92 a2 3e
       0.33663243 0.40732813 0.16966584 0.31752533
0002b0 e2 69 01 3f a6 a0 0a 3f c8 3c b2 3e a3 d3 fb 3d
       0.5055219 0.5415138 0.34811997 0.12296226
0002c0 62 4b b9 3e 12 b1 da 3e 36 30 a6 3e 33 ca d5 3e
       0.36190325 0.4271322 0.32458657 0.41755828
0002d0 ca b1 9b 3e 88 21 fa 3e 76 05 ad 3e 1f c8 8c 3e
       0.3040908 0.48853707 0.3379323 0.2749643
0002e0 56 e5 10 3e 03 2f b5 3d c3 ca 4f be c9 dc d8 bd
       0.14149985 0.088468574 -0.20292191 -0.105889864
0002f0 b4 9e 53 be b0 e1 d1 bd 15 36 e3 be 09 e8 c0 be
       -0.20666009 -0.102481246 -0.443772 -0.3767703
000300 5c 47 b1 be 28 13 c7 bd 05 b4 4b be 83 cb dd be
       -0.34624755 -0.09720451 -0.19892891 -0.4331933
000310 20 b0 68 be f7 34 b9 be f3 0e 44 be b2 5a 12 3d
       -0.22723436 -0.3617322 -0.19146328 0.035731025
000320 ba d0 8f 3d 15 84 7f 3e 15 ac a5 3d 72 25 21 be
       0.07022233 0.24952729 0.08089463 -0.1573694
000330 65 28 1e be e4 08 a9 3e 33 86 4d 3d 1c b3 99 3e
       -0.15445097 0.33014596 0.05017681 0.30019462
000340 bd 2c 20 3e 78 c1 5f 3e 97 31 7f 3e 70 ef 52 3e
       0.15642066 0.21851146 0.24921261 0.2059915
000350 01 72 69 3e e5 d1 bd 3e a0 a9 b6 3e 9a f2 2e 3e
       0.22797395 0.370742 0.3567629 0.17084733
000360 42 07 7c be 27 3d b9 bb af 84 2d be f9 c6 81 3e
       -0.24612144 -0.005653042 -0.16945146 0.25347117
000370 75 92 84 be fb 67 ca be 0a 5c fe be 65 07 ea be
       -0.25892988 -0.39532456 -0.49679595 -0.45708767
000380 4c 03 a9 be 2d 17 7d 3e d0 4f 0a 3f 2d c2 4a 3e
       -0.33010328 0.24715872 0.54028034 0.19800635
000390 8d 99 ad 3d c5 7a 0f 3d bb ef a0 3e 3f c6 5a 3d
       0.08476553 0.03502919 0.314329 0.05341172
0003a0 be 7c ce 3e 76 8d b9 3e fb aa c1 3d 2c 77 51 be
       0.40329546 0.3624074 0.0945644 -0.20455617
0003b0 b1 6f 3a be 9b 30 4b 3e 43 00 94 3e 3f 67 87 3e
       -0.1820667 0.1984276 0.2890645 0.26445958
0003c0 14 84 ff bc da 1c 82 be 18 d0 58 bc bf 7c b5 3e
       -0.03119091 -0.25412637 -0.013233207 0.35446736
0003d0 81 0f 74 3e d3 73 ce be 4c 75 6f be 35 13 df 3c
       0.2383404 -0.40322742 -0.23384589 0.027230838
0003e0 ed 0d 85 3e 83 36 92 3e
       0.25987187 0.28557214

bias f4 [10]
000000 39 7e 3a bd 45 50 ee bc fb 36 69 3b c1 82 9c 3e
       -0.04553053 -0.02909101 0.003558575 0.30568507
000010 8e 91 93 3c 1c 9d c8 3d e6 2b 6e 3e 46 d1 c0 3c
       0.018013742 0.09795591 0.23258933 0.02353729
000020 89 5b 5b 3e fb 44 4c 3d
       0.21421637 0.049870472

weight f4 [20, 10, 5, 5]
000000 d8 d0 96 bd bc 8d a1 bd e8 62 e4 bd cc b8 8b bd
       -0.073640525 -0.07888362 -0.11151677 -0.068223566
000010 ed 5a 27 be a1 d7 75 3b 44 ec 84 3d 47 a3 ce bc
       -0.16343279 0.0037512558 0.064903766 -0.025224341
000020 d4 81 36 3d 31 e3 06 bd 73 48 29 3d 51 62 5f 3d
       0.044557407 -0.03293151 0.04132886 0.05453712
000030 c9 d1 98 3d 4e cd d4 3d de ad c9 3c 53 f3 99 bd
       0.07461888 0.10390721 0.02461904 -0.075171135
000040 e9 70 ad bc f6 3c 7f bb 86 73 9f 3d 89 14 e2 3d
       -0.021172004 -0.0038946248 0.07785706 0.11039073
000050 ec 9d 3f 3b 23 88 f8 bc d2 62 1e bd bd 83 e8 bc
       0.0029238416 -0.030338353 -0.03866846 -0.02838313
000060 75 5e 6a 3c 75 85 e2 bb 80 e2 26 3d ee 1d 65 bb
       0.014304747 -0.006912882 0.04074335 -0.0034960466
000070 37 c6 69 3c 6d f7 d4 bc fc 6e 3c bd 19 7c bb 3d
       0.0142684495 -0.025996888 -0.04600428 0.09154529
000080 e4 84 cc 3d 09 78 09 bd 3b 99 8b 3d 34 ba 1e be
       0.099862844 -0.03356174 0.06816336 -0.15500718
000090 d5 5d 1a 3d e8 0a 3a bd 75 14 76 bd 87 51 52 3d
       0.03768714 -0.045420557 -0.060078103 0.05134728
0000a0 b2 3f 10 be f6 2c 1e bd c6 cc c3 bd 52 d3 70 bc
       -0.14086798 -0.038617097 -0.09560542 -0.01469882
0000b0 e5 2b 78 bd d7 89 71 bd 02 a5 33 bc 9e da 41 3d
       -0.060588736 -0.058969345 -0.010964634 0.04732763
0000c0 bb d9 b0 3c 7f 86 67 3d b0 ba 0a bd 4e d9 2f 3c
       0.021588197 0.05652475 -0.033869445 0.010732962
0000d0 24 c6 9f bc 54 cd 0f 3b 19 04 c2 bc 49 db 19 3d
       -0.01950366 0.0021942453 -0.023683595 0.037562642
0000e0 04 28 18 3e e3 bb 3a 3d 7c 27 82 bc 15 05 9a ba
       0.14859015 0.04558934 -0.015887968 -0.0011750782
0000f0 dc 22 d0 bd 1f 16 50 3c e5 57 20 3b 15 73 84 3d
       -0.10162899 0.012700587 0.0024466452 0.06467263
000100 9c 27 a8 3c a8 a2 97 bd eb b3 09 be 7d 5c 4a bd
       0.0205267 -0.07404071 -0.1344754 -0.04940461
000110 27 86 28 3c a1 66 50 3c 3f d8 12 bd 22 69 a3 bc
       0.010285891 0.012719781 -0.03585076 -0.019947592
000120 84 eb a6 bd a5 9a d3 bc ac 74 86 bd 7c c5 85 bd
       -0.0815039 -0.025830576 -0.06565222 -0.06531808
000130 fa 3e 72 bd 75 f8 23 bd 9a 20 21 bd ee fb 87 bd
       -0.05914209 -0.04003187 -0.039337732 -0.06639849
000140 ec f8 13 3e c5 d2 82 bc d3 67 12 3d b2 65 67 3d
       0.14450425 -0.015969643 0.035743546 0.05649347
000150 cd e6 cb bc 0f 8c d5 3d 08 85 f1 3d 62 3d 4d 3d
       -0.024890328 0.10427105 0.11792952 0.050107367
000160 71 90 11 3e b0 f7 55 3d bb 09 22 3e f6 7b 92 3d
       0.14215256 0.052238166 0.15824024 0.0715255
000170 38 31 19 3e 5c 9c a9 3d 6b 5d cc 3b 8d e5 c9 3d
       0.14960182 0.08281776 0.006236722 0.098582365
000180 06 44 c9 bc 8a 1d 62 3c 05 38 8f bd 9e d1 ad bb
       -0.024568569 0.013800988 -0.06993107 -0.0053045293
000190 04 8d c6 bd 5d f3 4b bd 38 2e de 3c 11 81 8d 3d
       -0.09694865 -0.049792636 0.027121648 0.06909383
0001a0 40 78 9c 3d 10 4e 86 bd bb 4c 27 3c 6c 38 be bc
       0.07640123 -0.06557858 0.010211165 -0.023220263
0001b0 9d d3 b0 3c 3d a9 e5 bd c1 bd db b9 39 51 4d bd
       0.02158528 -0.1121392 -0.00041912313 -0.050126288
0001c0 6a 41 2e bd cf 3b ae 3b 4c a2 38 bd 4d ad 16 bd
       -0.042542852 0.0053171883 -0.045076653 -0.036786366
0001d0 da 81 a9 bd 51 73 95 bd 03 8f 6f bc 9c f4 81 bd
       -0.0827672 -0.072973855 -0.014621499 -0.06345484
0001e0 8b 4b b9 3d 6c 39 19 bd 46 98 8b bd 6c cd 17 3d
       0.09047612 -0.037408277 -0.06816153 0.03706114
0001f0 ed 50 6d bd 6f 3b a9 bc 5b b5 a8 bd d7 a1 d6 3b
       -0.057938505 -0.020658223 -0.08237716 0.0065500545
000200 20 ff 49 bb 59 b1 0a 3d e5 8a 0b bd 9d 40 73 3d
       -0.0030822232 0.03386054 -0.034068007 0.059387792
000210 db d7 dd bc 79 c5 3a 3d 5f dd cf 3c db 62 24 bd
       -0.027080467 0.04559848 0.025374113 -0.04013334
000220 eb 58 ca bb 10 75 29 3d c8 5a 15 3d 00 e5 94 3d
       -0.0061751506 0.041371405 0.03646353 0.07270241
000230 f3 bb c7 bd 62 43 99 bd 42 29 d6 bc 65 d5 78 bd
       -0.09752645 -0.074835554 -0.02614272 -0.060750384
000240 49 90 0d bc 5e 42 a9 bd 7f 5e aa bc 34 4c 67 ba
       -0.008640357 -0.08264612 -0.020797012 -0.0008823306
000250 23 d7 84 bc 05 ad aa bd 2d ae 5c 3d 21 56 a8 bb
       -0.016215866 -0.08333782 0.053877044 -0.0051372205
000260 fc 16 a2 3d 60 6f 0f 3e f6 3d e9 3d 8d 44 8f 3d
       0.0791454 0.1400733 0.11388771 0.06995497
000270 b5 50 4b bb ae 1b 64 bb f5 fd cf bb 4f 48 a2 bd
       -0.0031023447 -0.0034806537 -0.0063474127 -0.07923948
000280 b6 36 90 bd 38 ea ed bd 17 88 21 be c0 27 54 bd
       -0.07041685 -0.11616939 -0.1577457 -0.05179572
000290 ca ba 4b bd 42 fd c3 bc 32 73 d9 bb 90 43 ab bc
       -0.049738683 -0.023924474 -0.006636047 -0.02090624
0002a0 1e b7 3b bc 5d ee 20 3c 0b 44 15 3e b0 22 a4 3d
       -0.011457233 0.009822455 0.14576738 0.080144286
0002b0 e1 37 ca 3d 92 1c 7f 3d 7b 46 69 bd 3e 99 3a bd
       0.09873939 0.062283106 -0.05695198 -0.0455563
0002c0 ab 56 2e bc d1 67 3b bd 5b 9d a3 bd 14 2f a9 bd
       -0.01064078 -0.045753304 -0.079889975 -0.082609326
0002d0 e7 b6 4a 3d f8 a3 ad 3d 4f 81 a2 3d fb 3b a2 3d
       0.049490836 0.0847854 0.0793482 0.079215966
0002e0 bb 27 23 3e 60 64 74 3d 81 75 4f 3e d0 c2 49 3e
       0.15933125 0.059666038 0.20259668 0.19703221
0002f0 5b 81 46 3e 93 db 0a 3e 1d 77 c9 3d 8d ca 0d 3e
       0.19385283 0.13560323 0.09837172 0.13846798
000300 42 42 96 3d 34 d1 88 3d 06 b4 d2 3d 42 b8 1c 3c
       0.073368564 0.06680527 0.10288243 0.009565415
000310 94 75 9e bd e7 bf 02 be e4 dd 5c 3c 6e 16 d7 3d
       -0.0773727 -0.12768517 0.013480637 0.10502325
000320 c4 c6 ec 3b 36 39 8b bb b0 e1 2d bd 57 29 44 bd
       0.007225843 -0.0042487634 -0.04245156 -0.047890987
000330 fb 32 0b 3d 81 e6 fa 3d 06 91 0e 3c 82 21 68 3d
       0.033984166 0.122509964 0.0087015685 0.05667258
000340 2a 74 86 3d 99 05 a2 3c 04 8a e2 3d e1 ca 87 3d
       0.06565125 0.01977806 0.11061481 0.06630493
000350 a0 a4 e6 3d 64 fb b4 bb 70 e9 97 3d da 10 df bd
       0.112618685 -0.005523132 0.074175715 -0.10891886
000360 d2 32 79 bd a5 72 75 bd 7d d9 4f 3d 4a f0 92 3b
       -0.06083948 -0.059923787 0.050744522 0.004484211
000370 e4 0c 2b be 81 48 b8 bd bb 80 27 be aa 0c 6e bc
       -0.16704136 -0.08998204 -0.163577 -0.014529387
000380 b6 a0 24 3d 51 9a a6 bd 35 d8 ef bc 3f 64 cb bd
       0.04019233 -0.08134902 -0.0292779 -0.0993123
000390 5e 8a f4 bd 03 4b 01 be e7 ae 82 3c ec 6a dc bc
       -0.11940454 -0.12626271 0.01595254 -0.026906453
0003a0 de fc a3 bd 15 de 20 bd 77 04 4b bc 8b e9 c2 3c
       -0.08007215 -0.039274294 -0.012391201 0.023793003
0003b0 a3 b8 f5 bb 97 20 ae 3d 05 89 96 3d f4 2f 96 3d
       -0.007498817 0.0850231 0.07350353 0.07333365
0003c0 92 de 24 bd dd 3b 8e bd 9f 4a 39 3d ef 8a 46 3d
       -0.040251322 -0.06945012 0.04523718 0.04847234
0003d0 a3 f5 f4 bc 60 3f 58 3a 37 ea 89 bc 00 fe 61 bd
       -0.029902285 0.00082491897 -0.016835315 -0.055173874
0003e0 d0 52 23 3c aa 39 56 bd 43 e9 da 3d 1d bc ce 3c
       0.0099684745 -0.052301086 0.106890224 0.025236184
0003f0 14 d9 1f 3d cf e2 cf 3d 26 58 a1 3c 5c db a3 3d
       0.03902538 0.10150682 0.019695353 0.08000824

bias f4 [20]
000000 a5 6d 1e bd 73 b1 56 3a 4a 0d 32 bd 25 68 1e bd
       -0.038678784 0.0008189894 -0.043469705 -0.03867354
000010 22 ed 53 3b 07 74 9c 3c d4 81 24 3c a1 f2 f9 bb
       0.0032337387 0.019098295 0.010040719 -0.0076278006
000020 67 a8 ed bb a6 9f 55 3d 7f d9 25 bc 82 bb 12 3d
       -0.007252741 0.052154206 -0.010122656 0.035823353
000030 7c 61 be 3d 61 8a 1f bd e5 fa 63 bd 92 65 3c bd
       0.092959374 -0.038950328 -0.055659194 -0.045995302
000040 34 dd ae 3d a1 ab 88 bd 8a b4 02 3d d8 a5 6f 3d
       0.08538285 -0.066733606 0.031910457 0.05850777

weight f4 [50, 320]
000000 a5 85 7f bc 1c 8d 9b bd b3 79 a2 bc 2c f0 8c bd
       -0.015595828 -0.07595274 -0.019833421 -0.06881747
000010 da 75 c4 bc fc 6b f5 bc 11 75 a6 bd 9c 61 e4 bd
       -0.023981977 -0.029958718 -0.081277974 -0.1115143
000020 13 58 3e 3d 1e f0 f8 bc c4 e7 2e 3d 61 67 66 39
       0.046470713 -0.030387934 0.042701498 0.00021973021
000030 fe d7 9f bc 65 63 d0 bb c3 fb 17 3d 70 12 0d 3e
       -0.019512173 -0.006359505 0.037105333 0.13776565
000040 ea 71 ac 3d ca bf d9 3d c5 45 8e 3b 9c c4 8f 3d
       0.08420165 0.10632284 0.0043418133 0.07019922
000050 bd b8 28 3c 36 6f 7b bd ce dd 96 bc 5b bd 08 3c
       0.010297951 -0.061385356 -0.018416312 0.008345927
000060 9d ae 05 bc 84 9e 91 3c 22 e8 8c bd 34 e6 54 bd
       -0.008159307 0.017775781 -0.06880213 -0.05197735
000070 e6 05 e2 3c 1b 84 06 3c e2 3b 14 3b 33 16 44 3d
       0.027590703 0.008210207 0.00226187 0.047872733
000080 f8 51 85 bd f5 ea 94 bc 60 f7 b6 bd c3 62 7b bd
       -0.06509775 -0.018178442 -0.08933902 -0.061373483
000090 76 ff 87 3d c5 f4 09 3d 2f 9c ff 3c 6c fa 77 bb
       0.06640522 0.033680696 0.031202404 -0.0037838472
0000a0 f4 e2 95 3c c6 9d b4 3b 1e 03 c9 3d a5 ea 30 3d
       0.018296696 0.005511972 0.09815048 0.043192524
0000b0 1e dc 89 bd cb 38 79 bb ef 11 32 bd b6 b8 69 3d
       -0.06731437 -0.0038028236 -0.043474134 0.05706092
0000c0 7e 81 9c 3c 37 d4 b2 bd ba fb 85 bd 4a 2c db bd
       0.019104715 -0.08731883 -0.06542154 -0.10701807
0000d0 25 33 9b bd 44 39 b3 bc a2 2b 9f bd b4 b9 96 3c
       -0.075781144 -0.021877892 -0.07771994 0.018399097
0000e0 6a 25 b5 3b a3 39 1a 3d b8 f1 05 3d 97 b7 72 3d
       0.0055281417 0.037652623 0.032701224 0.059257116
0000f0 ac a8 ae 3c ed 9e 67 3d 34 ee dc 3c 57 46 a2 3d
       0.021320663 0.056548048 0.026969053 0.079235725
000100 68 3c f9 3c d2 6d da 3d f0 3d ad 3d e9 80 d5 3d
       0.030424312 0.10665478 0.08459079 0.10424978
000110 de 15 50 bd 48 dd ac bc eb 86 3f 3a c8 a2 d7 3d
       -0.050802104 -0.021101609 0.0007306176 0.10529095
000120 f6 99 fe bc 39 11 e0 3c 47 11 d3 3a 19 f7 1f bb
       -0.031079274 0.027351962 0.0016103172 -0.0024408756
000130 20 ab 3c 3c a7 e4 43 3c ba 6b 9b 3c 04 ce 8d bd
       0.011515409 0.01195637 0.018972266 -0.0692406
000140 ac 78 37 3d 88 d1 56 3c f3 94 e4 3c de 88 4b bd
       0.044792816 0.01311148 0.027903056 -0.049691074
000150 11 5d f6 bc 61 59 0e bd 8f 33 c2 bd f4 de cc bd
       -0.030073674 -0.034753207 -0.0948249 -0.100034624
000160 e2 86 f0 bc 76 fc 42 bd d7 d5 1a bd 71 85 49 bd
       -0.029361192 -0.047604047 -0.03780159 -0.049199525
000170 f4 30 0d 3d 5a ac b2 3c 92 91 aa 3c 50 5b 4a 3d
       0.034470513 0.0218107 0.020821366 0.04940349
000180 42 2e 05 bd 39 a6 1c bd f2 59 9d bd 5f 19 fc bd
       -0.032514818 -0.03824446 -0.07683171 -0.12309527
000190 5e 71 70 bd 0a 9a 27 3d 9f 34 3a bd e9 54 0a 3d
       -0.058701865 0.040918387 -0.04546034 0.033772383
0001a0 62 27 f7 3b 8c fb 08 bc 4e df 87 3d 94 47 8c 3d
       0.0075425366 -0.008360755 0.06634389 0.0684959
0001b0 2d 95 a8 3c 90 5d 46 bd 3d 78 bb bc 2f b8 33 3d
       0.020578945 -0.048429072 -0.022884483 0.043876823
0001c0 a1 df 2e 3d 64 4e 38 ba 6c be 83 bd d7 7e 5f bb
       0.042693738 -0.0007030724 -0.064328045 -0.0034102702
0001d0 25 a3 a9 bc 73 ab 45 bd e7 70 6a bc 11 46 4e bd
       -0.020707676 -0.04825921 -0.014309145 -0.05035979
0001e0 96 19 8c bc be cc 35 3d 16 5b 56 bd 15 fa 6f 3d
       -0.017102044 0.04438471 -0.05233296 0.058588106
0001f0 a2 c2 68 3c 9a 6e 18 3d 4e 9e 46 3d d6 20 79 3d
       0.01420656 0.037214853 0.048490815 0.06082233
000200 37 a1 bb 3a c9 55 05 3d 63 a8 05 ba 64 fe 51 3c
       0.0014315014 0.032552514 -0.0005098639 0.012816999
000210 05 bd 81 3c 96 b6 ed 3b d1 8f e2 3c d4 4e c1 bb
       0.015837202 0.007254432 0.027656468 -0.0058992896
000220 aa c9 35 3d a6 22 16 3d bb 66 07 3b 0e 99 8b bc
       0.044381775 0.036654137 0.0020660597 -0.017040756
000230 57 e9 da bc 2b 01 6e bd 5f 56 92 bd 90 ce 0b 3d
       -0.026722593 -0.058106583 -0.0714538 0.03413254
000240 63 99 07 3e 1b 52 0d bc bc f3 f2 bc e3 42 03 bc
       0.13242106 -0.0086255325 -0.029657237 -0.0080115525
000250 e4 ab 88 bd d4 3b 8d bd d1 3e 09 bd f7 19 f1 bd
       -0.066734105 -0.06896177 -0.033507172 -0.117725305
000260 d7 ea fa ba 56 68 d9 bb d0 c1 a8 bb 6e 76 d9 bb
       -0.0019143474 -0.0066347523 -0.0051500574 -0.0066364324
000270 8a 6f b7 bc e6 a7 3c 3d bb 24 7f 3d b1 1f 8e 3d
       -0.022392053 0.046058558 0.06229089 0.069396384
000280 b6 e4 ec bd 26 91 4e bd b5 d8 46 bd 2f 92 4a 3d
       -0.11567061 -0.050431393 -0.04854651 0.049455818
000290 cf dd 51 3c 7a 44 29 bd 16 4f 67 3a 4c 67 58 3d
       0.012809231 -0.04132507 0.00088237354 0.052832887
0002a0 3a 7b 6e 3d 77 16 be 3c 47 34 da 3c 9a 4d bc 3d
       0.058222987 0.023204071 0.026636256 0.09194489
0002b0 d1 6d ec 3c 38 e1 80 3c 5f 7c 64 3c c5 1f 57 3d
       0.028860958 0.015732393 0.013945668 0.052520532
0002c0 2d 91 52 3d 77 90 43 bd c8 3f 4d bc 3d 77 fb bd
       0.05140798 -0.047745194 -0.012527414 -0.12278602
0002d0 cf 15 80 bc 78 28 04 bd d1 9d 42 bd 0e be db bd
       -0.0156354 -0.032265157 -0.047513787 -0.107296094
0002e0 00 dc b0 3c 8a ce 12 bd 9a 5a e3 bb f0 47 85 3d
       0.02158928 -0.035841502 -0.006938291 0.065078616
0002f0 b6 22 4b bc b0 66 41 3b 26 e3 49 3d 8e 36 c8 3d
       -0.012398412 0.002951067 0.04928889 0.097760305
000300 13 11 1c bd cf 06 60 bd 8d 5d 05 bc c1 d7 1c bc
       -0.03810222 -0.054693993 -0.00813998 -0.009572924
000310 54 4a 16 bb eb 4e 87 bd ed 03 8b bb b0 cb df bc
       -0.0022932487 -0.06606849 -0.0042424113 -0.027318805
000320 db 2d 95 3d fa 9c c3 bc 2f dc 45 3c d7 f3 20 3d
       0.07284137 -0.023878563 0.012076422 0.039295044
000330 5e 73 4b 3d 53 59 d8 3c a0 54 d6 bb 17 cf 98 3a
       0.04967057 0.02640978 -0.00654085 0.0011658397
000340 7d a6 c7 3c f8 db b0 bd 48 0a 6e 3c 27 66 19 be
       0.02437138 -0.08635706 0.014528818 -0.14980374
000350 1e 51 34 bd 97 9b a2 bb 1a cf f2 3c d0 e5 45 3d
       -0.044022672 -0.0049623954 0.02963977 0.04831487
000360 1e d2 9d 3d 8e 3c 81 3d a7 45 1a 3b 09 c8 7a 3d
       0.07706092 0.06310378 0.0023540051 0.061225925
000370 25 d8 58 bc 51 06 a1 3c 6e 5a 1a bd 7b 24 66 bd
       -0.013235127 0.019656332 -0.037683897 -0.056187134
000380 0c 80 55 bd 4d 52 3f bd 1b 7a 71 bd 53 3d 52 bb
       -0.05212407 -0.046709348 -0.05895434 -0.003208001
000390 2d 1e 9d 3c f2 97 d9 3c 88 dc 7e bb 76 c9 78 3a
       0.019179428 0.026561711 -0.003888877 0.0009490469
0003a0 3e f4 da 3d 0a b1 23 bc a3 e5 0a 3d 77 0a d9 3d
       0.10691117 -0.00999094 0.033910405 0.10597699
0003b0 96 cd 92 bb fb 77 ac bd 15 ca 58 bd e7 9e c9 bc
       -0.004480074 -0.08421322 -0.052927095 -0.024611903
0003c0 85 c6 15 3d 34 75 52 bc 23 52 9b 3a 27 45 94 bc
       0.036566276 -0.012845326 0.001185004 -0.01809938
0003d0 55 cf a0 3d 19 21 65 bc f0 35 f0 3b 36 f7 24 3c
       0.078520454 -0.013984942 0.0073306486 0.010068705
0003e0 bf ed 82 3c 5e d7 d7 3c e4 fe d3 3c 63 d3 f7 3c
       0.015982507 0.026347812 0.025878377 0.030252164
0003f0 34 8a a6 3c 84 a9 9d 3c ca fd 2d bd 91 75 ae bd
       0.020329572 0.01924587 -0.04247836 -0.08518518

bias f4 [50]
000000 43 e2 9c 3d 17 17 bf bb 0d e6 b8 3d e3 9a 60 3c
       0.076603435 -0.00583161 0.09028254 0.013708803
000010 9e 1a c3 3d 31 59 ad 3d ce b6 a1 3d bb fa 17 3e
       0.09526561 0.084642775 0.07896195 0.1484174
000020 cf de 05 3e c6 4e b7 3d ef e4 b3 3b eb 8d fd 3d
       0.13073276 0.08950572 0.0054899375 0.12380584
000030 9e 67 c4 3d 23 e3 ca 3d 65 c1 9b 3d 1d ea b0 3d
       0.09590076 0.09906604 0.076052465 0.086384036
000040 cf 71 a4 3c 18 ec 4a 3d f1 84 0a 3e 1c 6e d0 3c
       0.0200738 0.049541563 0.13527276 0.02544313
000050 f8 d9 81 3d 2c 6b 55 bc 57 85 0c 3e f8 6a 02 bc
       0.06340402 -0.01302604 0.1372274 -0.007960074
000060 70 7d a1 3d a2 1a b2 3d 48 c8 2a 3d 3d 09 fb 3c
       0.078852534 0.08696486 0.04169491 0.030644054
000070 b2 a5 8f 3d 9d f4 9a 3d 87 9c 06 3e cf 23 cb 3d
       0.07014026 0.075661875 0.13145648 0.09918939
000080 e7 df 48 3d e4 9f cf 3d 0a ef a1 3d 92 74 4b 3d
       0.049041655 0.101379186 0.07906921 0.049671717
000090 f6 4e 9e 3d cb 02 f3 3c dc 97 11 3d ae 89 e6 3d
       0.07729904 0.029664418 0.035545215 0.11256729
0000a0 7b 13 6a 3d 18 0e 97 bb 90 4b e3 3d 85 92 94 3d
       0.057147484 -0.0046098344 0.11098397 0.07254509
0000b0 1f 36 48 3d 93 e9 21 3e 14 dc 90 3d 5a dc 15 3e
       0.04887974 0.15811758 0.070732266 0.14634839
0000c0 8d e1 80 3d 39 87 11 3e
       0.062930204 0.1421174

weight f4 [10, 50]
000000 b4 95 bf bc b2 52 8e be 68 6a 08 3e 3c d2 f2 3d
       -0.023386814 -0.27797467 0.13321841 0.11856505
000010 91 21 a4 be 33 00 f7 3d 12 a9 d8 bd 1f 05 9f be
       -0.3205686 0.12060585 -0.105791226 -0.31058595
000020 b9 cd 36 be cb cc e3 bd a1 cb 74 3d ff 37 66 be
       -0.17851914 -0.111230455 0.05976451 -0.22482298
000030 e6 96 21 be 93 57 a4 be 24 a1 80 be 45 00 2a 3d
       -0.1578022 -0.32098064 -0.2512294 0.041504163
000040 3e 8f cb be e2 c9 6e 3d 86 56 7b be 7d bc 53 be
       -0.39757723 0.058298 -0.24544725 -0.20677371
000050 d5 8e 24 3e f2 e0 82 be 2a 69 92 be 92 28 41 be
       0.16070111 -0.25562245 -0.2859586 -0.18863133
000060 ed d3 b2 be be d5 64 3d 5f e3 84 be 3a 59 c4 bc
       -0.34927312 0.055867903 -0.2595472 -0.023968328
000070 01 2f 96 3d 1a 11 f1 3d d2 df 31 3e ae dc 95 3d
       0.07333184 0.1177084 0.17370537 0.07317482
000080 d3 60 21 3e 61 e0 62 be ba 13 a2 bd f1 0c d1 be
       0.15759592 -0.22155906 -0.07913919 -0.40830186
000090 cc 58 0c 3e d8 2b 7f 3d f3 89 57 be 2d 0d 61 be
       0.13705748 0.062297672 -0.21048717 -0.21977682
0000a0 d2 75 99 be cc 5f cd 3d e5 7c 1c 3e 7a f2 d3 3b
       -0.29972702 0.100280374 0.15282018 0.0064681144
0000b0 77 b7 0a 3e 96 9a 90 be 1b c8 9e 3e 8f 11 b2 bd
       0.13546549 -0.2824294 0.31012043 -0.08694755
0000c0 23 cc 2f 3e 1b 5c 25 3e 40 99 d7 3c 6d c4 df bd
       0.17167716 0.16148417 0.026318192 -0.10926137
0000d0 0b c4 b1 bd 77 aa 81 be 5b 35 e0 bd 96 6e 95 be
       -0.0867997 -0.25325367 -0.10947677 -0.29185933
0000e0 30 4c f2 be ae 1d a8 3d cc 09 26 3e 4e 54 16 3e
       -0.4732375 0.08208786 0.16214675 0.14680597
0000f0 e2 16 97 be 70 53 7f 3d 9d 14 0d 3d 6c 0e 5e 3e
       -0.29509646 0.06233543 0.034443486 0.21685189
000100 ad 34 ec 3d 1f 5e e9 bd 47 f1 98 bd 6c 71 0b be
       0.115334846 -0.11394905 -0.07467895 -0.13617486
000110 ce a6 16 3e 1e af 9b be bf 0e 53 be 99 7b 7f be
       0.14712068 -0.3040704 -0.20611094 -0.24949493
000120 24 59 29 3e cc 06 9c bd 55 ae b2 3d c4 d1 27 be
       0.1653791 -0.07618484 0.087246574 -0.16388613
000130 ce a8 3d be 8c b8 a1 bd 46 be bc bc a6 d9 8e be
       -0.18521425 -0.07896528 -0.023039948 -0.27900428
000140 d4 8d be 3d 5f 1f 02 be a9 d6 72 be 6f 29 03 3e
       0.09304395 -0.1270728 -0.23714699 0.12808774
000150 87 1c a8 be 86 5e 53 3e 42 1b 65 be 48 a2 5b bd
       -0.32834265 0.20641527 -0.2237368 -0.05362156
000160 eb 14 fe bd b8 ed b4 3d 13 34 b6 3d 56 a9 26 be
       -0.124063335 0.08834404 0.08896651 -0.16275534
000170 1a 5b fe 3d 12 a3 0d 3d 3b 6e 20 be c4 5f 20 3e
       0.1241972 0.034579344 -0.1566705 0.15661532
000180 dd 5a f3 bd 73 b2 36 3e 82 b0 37 be ad 01 3e 3e
       -0.11882565 0.1784151 -0.17938426 0.18555327
000190 c3 04 15 3e b9 08 99 bd ed 3d 09 3e c0 3a 22 3d
       0.14552598 -0.07472367 0.13402529 0.03960681
0001a0 d9 51 c5 bd 27 df 87 3d a7 ae e2 3d b7 b5 c4 be
       -0.09634752 0.0663436 0.110684685 -0.38419887
0001b0 9e f2 37 be e0 8d 14 3e 4d c1 c4 3c c0 b1 fd 3d
       -0.17963645 0.14507246 0.024017954 0.12387419
0001c0 04 b5 ce bd 78 d6 77 bd 0f 0e 08 be 56 3a 29 be
       -0.1009312 -0.060507268 -0.13286613 -0.1652616
0001d0 13 78 c5 bd 32 b5 bf bd 89 75 34 be e4 0d 57 bd
       -0.09642043 -0.09360732 -0.17622961 -0.05250348
0001e0 c2 6c d5 bd fe 24 85 be aa 29 21 3e f9 72 d1 3d
       -0.104211345 -0.26004785 0.1573855 0.102270074
0001f0 0c 80 40 be 24 fd 25 3e 6c 22 e6 bc aa ac 1b be
       -0.18798846 0.16209847 -0.028092586 -0.15202585
000200 12 21 5a be 6e a5 22 be 8f 4a c9 3d 97 41 f9 3d
       -0.21301678 -0.15883419 0.09828674 0.121707134
000210 ce 48 69 bb bc 65 12 3e 5f 41 9d be bf 61 4e be
       -0.0035596373 0.14296621 -0.30713937 -0.20154475
000220 e8 40 ca bb d3 5e ae 3d 10 7e 12 3e 5e 69 27 be
       -0.006172288 0.0851418 0.14305902 -0.16348788
000230 54 aa ee 3d e8 54 e2 3d e2 65 70 be b1 58 85 3d
       0.11653581 0.11051351 -0.23476365 0.06511057
000240 ae a6 15 3e 55 ed 25 be 00 66 20 be d0 1e c3 bd
       0.14614365 -0.16203816 -0.1566391 -0.095273614
000250 55 42 40 be d4 74 35 be a5 ad 1a be 6b c7 c0 3d
       -0.18775304 -0.17720348 -0.15105303 0.09413036
000260 b6 51 06 3e a3 f7 39 be de ed 77 bd ed d6 4c be
       0.13117108 -0.18160872 -0.060529582 -0.20003863
000270 cf b4 d8 3b 4d 35 3b be dd 18 26 be 60 fb 0d 3e
       0.006613351 -0.18282051 -0.16220422 0.13865423
000280 f6 4c 49 3d 71 6b c3 bd 88 e5 20 be bb 76 15 be
       0.04914566 -0.09541977 -0.15712559 -0.14596073
000290 95 de a1 be f7 d4 cc ba a5 fe ea 3d c1 af 11 3e
       -0.3161513 -0.0015627433 0.11474351 0.14227201
0002a0 ae b4 8c be 73 08 c9 3d 84 01 e8 bc 3c f3 65 3d
       -0.27481598 0.09816065 -0.028321035 0.05614017
0002b0 fc 3d 15 be 7b 15 bf 3d 7b 84 98 3d 5c 05 01 bd
       -0.14574426 0.09330269 0.07447144 -0.03149925
0002c0 5d d9 93 bc 07 af bc 3d 95 6a fa 3d ca d1 28 be
       -0.018047983 0.09213071 0.1222736 -0.16486278
0002d0 a5 82 43 be 4f 9e 83 bd 8e 8f 25 be 87 a6 e4 3d
       -0.19092806 -0.06426679 -0.16168043 0.11164575
0002e0 8d fc cd bd 22 fa 4f 3e 19 32 16 3e 2f 24 98 3d
       -0.10057936 0.20310262 0.14667548 0.074287765
0002f0 93 f0 a2 3d 82 0f 16 be b9 95 d7 3d 66 58 97 3d
       0.07956042 -0.14654353 0.10526604 0.073899075
000300 ba 36 3d bd dd 17 61 3d 16 44 ed bd bf 86 8e be
       -0.04619477 0.0549544 -0.11585252 -0.27837178
000310 76 b5 88 be a0 ce 95 be 83 6d 64 be c2 83 d4 bd
       -0.26700944 -0.29259205 -0.223074 -0.10376693
000320 1d ce 17 3e be 56 e5 3d 6d d5 04 be 36 f2 85 be
       0.1482472 0.111981854 -0.1297204 -0.26161355
000330 6f c9 19 3e 93 d3 02 3e 46 d0 cc bc 19 a5 f1 3c
       0.15018247 0.12776022 -0.025001656 0.02949767
000340 09 b7 59 bd 2b 9d 93 be b4 e9 b4 be dd 60 9f bd
       -0.05315307 -0.28830847 -0.3533455 -0.07782147
000350 72 8e db 3d ca 47 de bc 6a a8 06 3e 78 0f 29 3e
       0.10720529 -0.027133841 0.13150182 0.16509807
000360 ce 77 c1 3d a0 4b 66 be ea 03 a8 bd 32 13 cb bd
       0.09446679 -0.22489786 -0.082038715 -0.099157706
000370 b3 24 25 be 9a 1d 20 3d b3 67 a1 bd f4 f2 07 3e
       -0.16127281 0.03909073 -0.07881107 0.13276273
000380 fd fb c5 3d 02 c2 13 be 96 44 19 3e 2a 31 1a bd
       0.096672036 -0.14429477 0.1496757 -0.037644543
000390 bb 6a 8b be 28 a3 bd bd e7 fb 16 3c 72 9d 17 3e
       -0.27229866 -0.09259635 0.009215332 0.14806154
0003a0 2e 1f 35 bb 3d d1 2d be 8b 09 03 3e 5c c2 5e bd
       -0.0027636993 -0.1697435 0.12796609 -0.054384574
0003b0 0d ae 9c be 67 d9 6f be b6 e7 14 3e 82 f0 33 be
       -0.3060154 -0.23422776 0.14541516 -0.17572215
0003c0 da 77 51 be 20 e6 6e be 70 75 fc bd fe f6 a9 be
       -0.20455876 -0.23329973 -0.12327087 -0.33196253
0003d0 b7 3e 84 3d ba 7b 1b 3e 5e 85 34 be b1 58 2d 3e
       0.064572744 0.15183917 -0.17629 0.16928364
0003e0 6a cd 3e 3e 5e 3e 3f be e8 c9 28 be 87 c7 d0 3d
       0.18633047 -0.18676135 -0.16483271 0.10194307
0003f0 a5 cd 5b be 2b 54 e4 3d 35 07 f3 bd 6a cf 32 3a
       -0.21465166 0.11148866 -0.11866609 0.0006821068

bias f4 [10]
000000 f1 b3 a7 3b 4a 30 bb 3e f6 56 2b bd 99 41 11 be
       0.0051178862 0.3656028 -0.04183098 -0.1418518
000010 3e 7c a8 bc 3c 6a 18 3b 3e a6 1e be 5d ca d9 bb
       -0.020567056 0.002325668 -0.15493104 -0.006646438
000020 7f f6 c7 bc c6 05 c5 bd
       -0.02440953 -0.09620242
