Pretrained Models/fashionMNIST_cnn_model.pth (torch_old, 133508 bytes, 10 tensors)

conv1.weight f4 [6, 1, 5, 5]
00000000: fc6e 913d d2ac 643e 82a9 193f eb37 033f
00000010: b41d df3e a928 993e 6a9c 093f 2430 ca3e
00000020: fb58 7d3e 4cee 8e3e 1077 d03d b012 b83e
00000030: 31cb a83e 7452 c63e 4ced 873e c197 803e
00000040: 334b 7d3e 03ce 793e 3318 113e c942 483e
00000050: 3c7a b53e 6bbf 743e 622c 343d 7226 8a3e
00000060: 97c6 0d3d 2168 8cbd cb64 0a3d df7a f9bc
00000070: 06e9 61be 7521 553e 26a0 113e e852 e5bd
00000080: 2d33 993d 3990 36bd 424b c7bc 7e1d 9d3e
00000090: cf0a 663e 0f94 6b3c f2b5 72be 35fd 0f3e
000000a0: 195c 643e 605f 39bd c338 29be e8c9 a0be
000000b0: 8cd5 8bbe 4531 a13e 1ccc 903e 39b6 efbd
000000c0: c676 98be e785 91be 1c27 fbbe 31b3 94be
000000d0: 6887 07bd ee6a 913e 89f9 663e 74ab f5be
000000e0: 0b89 a5be 3090 623e 4c95 ac3b c7e2 073e
000000f0: debb a8be af87 1fbe 91b1 f7bc 20bf 6f3e
00000100: 3d79 9d3e b5e3 1abe 428e 59be 48f9 9d3e
00000110: 08c7 9e3c ca30 3a3e 03ce 9cbe 7b6a 00be
00000120: e83f 323e 375b 913d 8378 b93e 1b5c 2dbc
00000130: fa61 9fbd e636 f33c 1837 19be db71 403d
00000140: 61eb 39be 2502 4bbe 6a6b 89bd 7473 003e
00000150: 0508 1c3d 7fd6 a8ba c27f 0cbe 890b cebd
00000160: 41e7 403d b5f4 a33c 6609 1ebe f549 01be
00000170: b3f3 eebc b9a6 d83d c2dd 1a3c a634 3bbe
00000180: 4641 ef3d 8717 5cbd 2d29 ebbd db80 82bd
00000190: 3bd0 ebbd dc45 0d3b b443 31bb aae2 d73d
000001a0: 214a 85bc 6942 10bd 038e a3bd 328e 21be
000001b0: bf92 f13d 3dfc b9bc 2b52 b33d 711c 903d
000001c0: b4ea 22be cebd ab3d 89ca 25be 542d 973c
000001d0: c49e f5bd 999b 31be daf2 883d 73b6 2c3d
000001e0: d37e 283e 4f4e 90bc 1464 b33d 6140 293e
000001f0: 3cab 483d 8b1d 3bbe d636 a9bc 25c5 9fbd
00000200: d680 c93d 29c2 9bbd f4e7 91be bcee d53d
00000210: 5b22 2e3e e2d9 cd3b 9b55 0a3d 284f 64bc
00000220: 3a97 6b3e cab5 5a3e 1942 333e b13f 303e
00000230: fc3b 5ebe ede5 2dbe 93f9 513e d1fa dfbd
00000240: 6ccd 93bc 9cdd 6fbe cca4 ddbb c142 323e
00000250: d199 cb3d 49f2 2fbe
0.07101247 0.2233155 0.60024273 0.512572 0.4357735 0.29913834 0.53754294 0.39489853
0.24740975 0.2791618 0.10178959 0.35951757 0.32967523 0.38734782 0.2654823 0.2511578
0.24735717 0.24394993 0.14169388 0.19556727 0.3544482 0.23901145 0.04398764 0.26982456
0.03461322 -0.068557985 0.03378753 -0.030454097 -0.22061548 0.20813544 0.14221248 -0.11197454
0.07480464 -0.044571135 -0.024327878 0.30686563 0.2246506 0.014378562 -0.23702219 0.14061435
0.22300757 -0.045256972 -0.16525559 -0.31404042 -0.2731136 0.31482902 0.28280723 -0.11704678
-0.29778117 -0.28422472 -0.49053276 -0.29042962 -0.033088118 0.28401893 0.22556128 -0.4798237
-0.32331118 0.22125316 0.005266821 0.13270102 -0.3295583 -0.15579103 -0.030236037 0.23412752
0.3075656 -0.15125926 -0.21245673 0.3085425 0.019382015 0.18182674 -0.30625924 -0.12540619
0.17407191 0.07097476 0.36224756 -0.010581042 -0.077823594 0.029689264 -0.14962423 0.04698358
-0.18156196 -0.19825037 -0.06709941 0.12544042 0.038093586 -0.0012881308 -0.1372061 -0.10060794
0.04709554 0.020014146 -0.15433273 -0.12625869 -0.02916894 0.10578675 0.009452285 -0.18281803
0.11682372 -0.053733375 -0.11482463 -0.063722335 -0.11514326 0.0021556532 -0.002704841 0.105412796
-0.016270699 -0.035219584 -0.07986071 -0.157769 0.11795568 -0.022703284 0.08755907 0.07036675
-0.15909845 0.08385812 -0.16190542 0.018454231 -0.11993173 -0.17344512 0.06686945 0.042166185
0.1645463 -0.017615465 0.08759323 0.16528465 0.048991427 -0.18272988 -0.02065603 -0.07801274
0.09839027 -0.076053925 -0.2849728 0.104459256 0.17005293 0.006282077 0.033773046 -0.013934888
0.23006907 0.2135841 0.17505683 0.17211796 -0.2170257 -0.16982241 0.20505361 -0.10936511
-0.018042289 -0.23424381 -0.00676403 0.17408277 0.099414475 -0.17182268

conv1.bias f4 [6]
00000000: 40ba 853c d03d 103e d5c8 3f3e db21 a5bd
00000010: a561 e2ba 4a8a 2ebd
0.016324162 0.1408608 0.18728955 -0.08063098 -0.0017271532 -0.04261235

conv2.weight f4 [12, 6, 5, 5]
00000000: 48d0 2fbd 6c1d 0f3e 71e1 293e f5ff 033b
00000010: ddee 843d 302e d4bc 0fe3 2f3d 622e b13d
00000020: 9a7b dbbd 6cbb 8dbd 1ed4 ba3d 6bb3 df3d
00000030: 8ae3 c6bd 8633 263d 1804 6a3d 36d0 233c
00000040: 2392 8c3c 19db 97bd 2ddb 42bd 54a0 253e
00000050: 9282 3abd e316 f5bd 6bbd 15be 74ad 323d
00000060: 5046 0f3d b236 b73b 4843 e63c 78dc 753d
00000070: 3e4f 68ba 54e5 a0bd 18d7 d3bc bac0 bcbd
00000080: 8283 42bd 5f2b b5bd 7a5c 073d e480 4b3c
00000090: 9be6 6d3d c17e 8fbc 104e 3b3c e65e 85bb
000000a0: c7b0 963d 9cd8 ed3b 62c3 88bd 4026 773d
000000b0: 091b 083c 15db bb3b 35e9 f63b aa41 243d
000000c0: 542f 23bc 56d9 adbd 9c3b 85bc 8aba 023d
000000d0: 60c3 d4bd 1770 f0bd c46d 25bd c2a3 06bc
000000e0: 8037 103d de5a f1bd df55 acbd 6c43 503d
000000f0: ffe0 c7bc 9b10 dcbc a127 f0bd 3c26 7e3d
00000100: 33c1 96bb dc4b b6bd 974b 35bd c52d 59bd
00000110: 6132 0f3c e924 6d3d 167d d6bd dc83 713d
00000120: d113 10bc 80eb b03c 867a 4cbd 60f3 38bd
00000130: 06ed 85bd 1df7 5f3d 1993 963d b1f9 7c3d
00000140: 2df7 41bd 1887 313d 1e56 84bd 4749 843c
00000150: 6af9 39bd 6a2f 993d 1b89 c5bc 4470 68bb
00000160: 8cd0 0f3d e50e 3d3d ceed a1bd d299 553d
00000170: 51f2 843c 9c18 f53c 7947 d2bc d257 8ebd
00000180: 62a2 a53c 5ba5 463d 2422 dabc ceb5 3f3d
00000190: f510 6d3d 293e 9abd 33bc 75bd 610f 39bd
000001a0: a5a2 4d3d f174 27bd 5bcc a5bc e1f1 d83c
000001b0: 9eb9 b33d b86e 19bd 9dcd 82bd a379 723a
000001c0: 6707 7eba 6251 8dbd 4657 42bc db52 2fbd
000001d0: 6d7b 6c3d 618c e63c 6154 55bd 2679 48bd
000001e0: bb65 f23b 4e7c 39bb 984e d6bc 5c15 eebc
000001f0: 806d 94bd 395f 673d 6c42 c0bb dd21 3e3d
00000200: ba6f 4fbd 73d4 34bd 9cfe 323d 954b 0e3d
00000210: 7032 333b 1e0f 5d3d 781a 413c e29a 32bd
00000220: 80cf 88bd 031f 14bd 1022 c33c cb62 993c
00000230: ef10 3e3d 9985 73bd fdfc 66bc 310e 763d
00000240: b2c2 69bc bb1e 47bd ee3a cfbd adc8 2a3d
00000250: 2c24 8c3c dd03 8abd 850c 6b3e 4b12 4a3e
00000260: ede7 413e 9bf0 613e 7617 b33d c946 693d
00000270: def7 703d 568f 11bc cc40 df3d a8b0 193e
00000280: ca42 533b 3f0b a1bd 5718 e2bd 4408 043e
00000290: 2e93 bd3d 93ba 6ebe cc22 6cbe d77d 18bd
000002a0: 6cb0 d93d b506 df3d 1f9f 9fbe 022b bcbe
000002b0: bbd5 3dbe 7cdd 913c 464b 153e b532 2fbd
000002c0: 5b20 52bc fddc a53d 12a4 a5bd 7eb7 d2bd
000002d0: d00c d73d f088 733d cf34 8abd e7b3 53bd
000002e0: b1fd 2cbd 79b9 df3d 757c 2ebd 7725 413b
000002f0: 3c60 efbd 4690 a5bd d6a1 163b 4680 c4bc
00000300: 4d9d 753c f7f4 033d 727f 3abd 51dc 423d
00000310: 9c75 dabc 3caa 5ebd 75af 4abd ce4e 293d
00000320: 4bb1 d03d 7b7e 6cbc e3a9 fcbc 153a 1cbc
00000330: 6638 a5bc 4568 fb3c 611e 96bd 8594 80bd
00000340: 6898 083c e2b2 273d a072 183d 0cda 5d3d
00000350: 0ac1 d13d b64c a6bb 07b1 e5bd d6bc b9bc
00000360: 16cf ae3d 548e 863c a61d c5bc ef0d 6cbd
00000370: 6bb7 02be e25a 283d a445 9c3d eb06 efbb
00000380: fc53 0ebd 91e6 37bd b7b1 42bd 448c 28bd
00000390: 3eb0 a3bd 438a b8bc f35b 033b 3eec 3ebd
000003a0: 7c4e ac3c bc1a 74bd 5bac 093a ecc3 16bc
000003b0: e226 0a3d 087f f63c 8b87 51bc 23e3 9b3d
000003c0: a2c7 7c3c 09cc 11bd e7f4 763c 50fe 0fbd
000003d0: 2b97 e8bc 6923 bb3b 7786 8e3d 4588 0e3d
000003e0: cccd 1a3d 89e7 a03d 21e7 da3b 676e c93c
000003f0: a446 8cbd 8640 85bd 712e 263c c964 54bd
-0.04292324 0.13976067 0.16589905 0.0020141576 0.06490872 -0.02590093 0.04294115 0.08651425
-0.107169345 -0.069205135 0.091224894 0.10922893 -0.097113684 0.04057648 0.05713281 0.009998372
0.017159527 -0.074148364 -0.047572304 0.16174442 -0.045534678 -0.11967256 -0.14623038 0.04362245
0.034979165 0.005591237 0.028108254 0.06002471 -0.00088619057 -0.07856241 -0.0258594 -0.09216447
-0.047488697 -0.08846163 0.033047177 0.012420867 0.05808125 -0.017516496 0.011432186 -0.0040701507
0.07357936 0.007258488 -0.06677891 0.060339212 0.008307227 0.0057329037 0.0075351247 0.040101685
-0.009960014 -0.08488719 -0.016263776 0.03191618 -0.10388827 -0.117401294 -0.040387884 -0.008217754
0.03520918 -0.1178491 -0.08414816 0.05084555 -0.024399279 -0.026863387 -0.117263086 0.062048182
-0.004600668 -0.08901188 -0.04426154 -0.053022165 0.008740039 0.05789653 -0.10473077 0.05896364
-0.008793787 0.02159667 -0.049921535 -0.045153975 -0.06539349 0.054679025 0.073522754 0.06176156
-0.047354866 0.043341726 -0.06461738 0.016148223 -0.045403875 0.07479747 -0.024113229 -0.0035467306
0.035110995 0.046156783 -0.07906686 0.052148648 0.016228827 0.029918961 -0.025668846 -0.06950344
0.020219032 0.04849754 -0.026627608 0.04680424 0.0578775 -0.07531387 -0.059993934 -0.045180682
0.050203938 -0.04088301 -0.020239046 0.026482524 0.08775638 -0.037459105 -0.06386874 0.00092496927
-0.0009690434 -0.06900288 -0.011861628 -0.042803627 0.057734895 0.02814311 -0.052082423 -0.04894366
0.007397381 -0.002830285 -0.026160523 -0.02906292 -0.07247448 0.056487296 -0.005867293 0.046419013
-0.05064366 -0.04414792 0.043699846 0.03474005 0.0027343296 0.053969495 0.011786096 -0.04360474
-0.066802025 -0.036162388 0.023819953 0.018723866 0.046402868 -0.05945358 -0.014098403 0.060072128
-0.01426761 -0.04861329 -0.10118662 0.041695286 0.017107092 -0.06739018 0.22953995 0.1973354
0.18936129 0.2206444 0.08744709 0.05695227 0.058830135 -0.008884272 0.10901031 0.15008795
0.0032235854 -0.07863473 -0.11039799 0.12893778 0.09256588 -0.2331336 -0.23060149 -0.037229385
0.10629353 0.10889951 -0.31176087 -0.36751562 -0.18538563 0.017805807 0.14579496 -0.042772967
-0.012825097 0.08098791 -0.080879346 -0.102889046 0.10500491 0.059456766 -0.06748354 -0.05168524
-0.042234126 0.10924048 -0.04259916 0.0029471794 -0.11688277 -0.080841586 0.0022984645 -0.023986947
0.014991117 0.03221604 -0.045531698 0.04757339 -0.026667409 -0.054361567 -0.049483735 0.04133492
0.10190066 -0.014434452 -0.030842727 -0.009535332 -0.020168494 0.030689368 -0.07330013 -0.06278328
0.008337118 0.04094208 0.03721869 0.054163024 0.102418974 -0.0050750626 -0.11215406 -0.022673052
0.08535592 0.01642529 -0.024061989 -0.057630476 -0.12765281 0.041102298 0.076304704 -0.007294526
-0.034748062 -0.04489762 -0.047532763 -0.041149393 -0.079926 -0.022526866 0.002004382 -0.046612017
0.021033518 -0.05959581 0.0005251818 -0.009201985 0.033728488 0.03008987 -0.012788664 0.07611682
0.015428456 -0.035594974 0.015073038 -0.03515464 -0.028392395 0.0057110083 0.06959241 0.034797926
0.03779392 0.07856662 0.0066803847 0.024588777 -0.06849411 -0.065064475 0.010142908 -0.05185393

conv2.bias f4 [12]
00000000: 65f1 613d 80eb 473d 2720 133d 33ba 8ebb
00000010: 765c cc3c 2fea d23d db5c 833c 6fcb 9b3d
00000020: 63a3 6c3d 9b72 873c e109 c13d c90f f23d
0.055161852 0.048808575 0.035919335 -0.004355693 0.024946433 0.10298573 0.016035488 0.07607161
0.057773005 0.01653414 0.094257124 0.11819417

fc1.weight f4 [120, 192]
00000000: 510d 80bd ed25 823c aab5 c93b 157d 63bd
00000010: 8649 393d dd6c 58bb 45f1 1fbc 1798 5a3b
00000020: 0051 93bc 642f 85bd 4e55 54bd 2620 8dbd
00000030: 9d4a 343d 8115 2d3d 90f7 7ebd c6d0 69bd
00000040: 9409 a6bc 755f d33b 4868 813d f3a0 31bd
00000050: 7b82 8ebd 803a 843d 8190 4f3d 7392 91bd
00000060: b89b 3cbd d18c 273d b975 773d 6b62 733d
00000070: 51d6 453c 7100 4d3d 3fd2 b8bc 76cc 6c3d
00000080: 48dc 853d 90dd 88bd f26c 753c 2a21 27bd
00000090: 7682 383d 6413 0dbd f3f0 1a3d 5ae9 5d3d
000000a0: 6f20 8ebb f73e 303d c50d 443d 611f 0a3c
000000b0: 1c5c 95bd c60c 28bd e70b 903d ebf8 8ebc
000000c0: dcbe 2dbd 670c 4abc d050 613d f174 173d
000000d0: 13f5 653d 625e 76bd f9fc 96bd e32e dc3c
000000e0: 264f 85bd 1d74 7f3c 3064 253d 5a1b 2bbd
000000f0: aeee 263c 32d5 b3bc 55f2 6b3d 7d7f 97bd
00000100: 4994 433d 1337 953c c5b9 633c dce2 d9bb
00000110: 50b4 ef3b 670b bb3a 7735 82bd b65d 5d3d
00000120: 78b5 03bd 27ed 19bc ccbe 93bd 1a98 7abc
00000130: 2011 643d 0447 13bd 48cb 8ebd 7dba e3b8
00000140: 4ca0 74bd 2b14 83bd 2e70 133d f972 933c
00000150: cc9f 33bd da17 0ebd 3823 d13c 11d5 97bc
00000160: 40de 44bc b585 94bd 284d 6fbd d561 7dbd
00000170: aff7 6a3d 0083 7c3d b4d6 08bc 6d46 4ebc
00000180: 0cf3 e2bc d2ad 953c a43a 8e3d 7745 3fbd
00000190: 4c76 933d 1e93 4d3c b384 6a3d 4d95 3e3d
000001a0: 529f 0f3d 1fd6 533d 6fd8 39bd 5d90 003d
000001b0: cd49 4ebd 3982 203d 2509 8c3d cb49 69bd
000001c0: c0de 6c3a a59e 57bc 834b 823d 230a ddbc
000001d0: 197b d3bc ce3a e03c 8e2b 47bd fe06 963c
000001e0: 0f3f 5ebd 66d0 3ebc bb06 aa3c a06b 85bd
000001f0: 08f2 0cbc bfea 033d 00c5 88bd 63d0 1a3d
00000200: 0e78 d8bc 7e72 53bd b2bb 40bd 2fa3 82bd
00000210: c6e8 2a3c 941c 573d 7ee3 c73b f195 363b
00000220: 91c8 4a3c a4b9 1b3d d60b cebc 752c 633d
00000230: 6d64 34bd 9d96 f53c b081 a33c b667 4abd
00000240: 41d7 d03c 02a2 47bd e7de cd3c 2cab 9dbc
00000250: 5c84 05bd a5cf b7bc d957 123d 68bf 7abd
00000260: e412 913c 5430 8ebd b0cc 363d c7df 2abd
00000270: 5dbf 05bd 5194 853c b527 56bc 5a8c 983c
00000280: ee74 763c 8e42 eb3c b3bd 52bc ea66 9f39
00000290: 7669 52bc e62e 5c3d ce87 88bc 834c 57bc
000002a0: 2c6a 1bbd 1e3a 5fbd 42f6 48bd d120 043d
000002b0: 8194 95bd f943 6abd a087 3fbb dea0 45bd
000002c0: 225a 0bbd 2424 173d 573f 403d 87e4 833d
000002d0: 8eff 873c 51d9 7ebd a523 7fbd 5853 533c
000002e0: c0f4 ebbc 05b7 5abc 2bea 47bd eea0 8a3b
000002f0: c67b dd3c 5419 683d 64dd 9d3c 59ae 45bd
00000300: 723e 943d fd21 183d 0c00 03bc 7e61 843c
00000310: a0c2 1abd 5a55 493d 9e4a 4b3d 478d 483c
00000320: d26b f3bc 0564 243d 4c72 7cbd d754 a8bd
00000330: 3ad0 8fbd c0a8 32bd 2fa6 443d 9efa 66bd
00000340: 023f 803d d619 2cbc 0702 10bd 39c1 1c3d
00000350: daf5 603c 4102 083c b569 02bc 28cc 03bd
00000360: fffd f43c 3ca3 abbd d551 41bd 1a9b a73b
00000370: 11d5 abbb 177f 00be df19 4abd e127 11bd
00000380: a125 7bbd 2547 bfbc a9ee 93bd ae30 35bd
00000390: 561e aebb deec 8c3d 468b 763d 0ff2 85bd
000003a0: b240 903d 557b 38bd b353 943c cf10 4d3d
000003b0: fa62 babc 2c64 953d b804 71bd c21f 133d
000003c0: f5c5 dc3d cd5c 693d 902a d838 1086 e93c
000003d0: 3da9 193d 4e70 863d bb6e cabc d800 ddbd
000003e0: 5a57 d4bd 2273 47bd 643f 38bc adee acbd
000003f0: 52bb 6cbd 70cf 46bc d646 bfbd 1b40 cebd
-0.0625254 0.015887225 0.0061556892 -0.05553921 0.045236133 -0.0033023872 -0.009762113 0.0033354813
-0.01798296 -0.0650318 -0.051839165 -0.068908975 0.04401647 0.042256836 -0.062247813 -0.057083867
-0.02026824 0.0064505883 0.06318718 -0.043366384 -0.06958481 0.064564705 0.05067492 -0.07108011
-0.046046942 0.040905777 0.060415003 0.05942003 0.012075023 0.05004925 -0.02256119 0.057812177
0.06536156 -0.06682885 0.014979588 -0.040803112 0.045046292 -0.03444232 0.037827443 0.05417762
-0.0043373625 0.043028798 0.047864694 0.008430333 -0.07292959 -0.041027807 0.0703352 -0.017452678
-0.042418346 -0.0123320585 0.05500871 0.03697676 0.056141924 -0.060148604 -0.073724695 0.026877826
-0.06509237 0.015591648 0.04037875 -0.04177413 0.010188742 -0.021952245 0.057604153 -0.07397363
0.047748838 0.018214738 0.013899271 -0.006649358 0.007315196 0.0014270366 -0.06357854 0.054044448
-0.032155484 -0.00939492 -0.07214126 -0.015295053 0.055680394 -0.035956398 -0.069723666 -0.0001085894
-0.059723184 -0.06400331 0.035995655 0.01799916 -0.043853566 -0.034690715 0.025529489 -0.018534215
-0.012015879 -0.07252065 -0.05842319 -0.061860878 0.057365116 0.06164837 -0.00835197 -0.012590033
-0.027703784 0.01827136 0.069447786 -0.046697106 0.07200298 0.0125472825 0.057255458 0.046529103
0.03506405 0.051717874 -0.045372423 0.031387676 -0.05036335 0.03918669 0.06837682 -0.05695514
0.0009035878 -0.013160382 0.06362059 -0.026982373 -0.025815533 0.02737179 -0.04862552 0.018313881
-0.054259356 -0.011646366 0.020755162 -0.065146685 -0.008602627 0.032206293 -0.066782 0.03779639
-0.026424434 -0.05162286 -0.047054 -0.06378781 0.010431474 0.05251749 0.006100117 0.0027860368
0.01237692 0.038018838 -0.025152128 0.05546232 -0.044041086 0.029979045 0.0199593 -0.049415313
0.025493266 -0.048738487 0.025130702 -0.01924666 -0.03259693 -0.02243788 0.03572831 -0.061217695
0.017709203 -0.069428116 0.0446288 -0.041717317 -0.0326532 0.016306074 -0.01307099 0.018621612
0.015042527 0.02871826 -0.012862611 0.0003040352 -0.012842527 0.053755663 -0.01666632 -0.0131408
-0.03794305 -0.054498784 -0.049062975 0.03225786 -0.073037155 -0.05719373 -0.0029225126 -0.048249118
-0.034021504 0.0368997 0.046935406 0.064400725 0.01660135 -0.062218968 -0.062289853 0.012898289
-0.02880323 -0.013349299 -0.048807304 0.00423061 0.027036559 0.05666478 0.019270606 -0.048261974
0.07238473 0.03714179 -0.007995617 0.01615977 -0.037783265 0.049153663 0.049631707 0.012240714
-0.029714499 0.04013445 -0.06163244 -0.08219307 -0.07022138 -0.043617964 0.048010048 -0.05639135
0.06262018 -0.010504207 -0.035158183 0.03827021 0.013730491 0.008301319 -0.007959773 -0.03217712
0.029906271 -0.08380744 -0.04719718 0.005114925 -0.0052439054 -0.12548481 -0.04934108 -0.035438422
-0.061315183 -0.023349354 -0.07223255 -0.044235878 -0.005313675 0.06881116 0.060191415 -0.0654031
0.0704359 -0.045039494 0.018106317 0.050064858 -0.022752274 0.07294497 -0.05884239 0.03591896
0.10779945 0.056973267 0.000103076105 0.028506309 0.037514914 0.06564389 -0.024711004 -0.107911766
-0.103682235 -0.048693784 -0.011245582 -0.08443961 -0.05779583 -0.012134418 -0.09339683 -0.10070821

fc1.bias f4 [120]
00000000: 7c35 cfbb 2f1c a03d 591e 873c 5d5f 553d
00000010: 88a0 6e3d 2d63 8e3c 765e 3dbc c320 1abd
00000020: 3fd7 1a3d ad74 d3bb fd53 48bd 0736 623d
00000030: aea4 82bd dcdb 803d 6fe5 333d 45bf 4bbd
00000040: 423b 22bd 6cd0 cc3d 88e6 febc 9521 38bd
00000050: 8324 00bd 2d97 0dbd d01a c23d 8baa 973d
00000060: 112e a83d a823 fe3c 40d4 b43d afa5 863d
00000070: 8c1f 883d d37e 1fbd 3b49 13bc 7a4d 133d
00000080: c250 83bd cc93 65bd ba14 14bd 3601 8a3d
00000090: d352 5dbd a3b9 bb3c 74ad 853d 90b0 b0bc
000000a0: 2dc9 debc 6cdf 04bd bf16 4ebd ea0e 25bd
000000b0: 0a5b fa3d 1a1e 7f3d b640 4f3d 1739 c23d
000000c0: 74ef 773d bfeb bdbb 34ee 8b3a 1c30 53bd
000000d0: a3c3 6d3d 8a07 b5bc 815f 533d 144b 96bc
000000e0: 8845 093d bb95 a13c b284 5c3d 7802 53bc
000000f0: 06c1 6d3b 7246 85bd 12ac f5bc 0c69 a9bc
00000100: a0e7 b73d 1633 f83d 0bad 173d 4f71 a5bc
00000110: 3f6e 6cbd a6f6 53bd 12e0 483d 82c7 b1bc
00000120: 8895 803d 14f2 6fbd a61b 3f3d 3b63 d6bc
00000130: a8d2 02bd 0382 a43d 36b7 d4bc 2d0e c8bc
00000140: eb95 9eb9 58df 81bc f269 4dbd 0d18 6fbd
00000150: 8b9e 903d c3a3 ed3c 11db b6bc f7be 20bd
00000160: 6df8 4a3d 9e35 86bc aa3a 5abb 0e59 473d
00000170: dba4 93bd e965 9fbd d3b3 e13c 59c3 41bd
00000180: 4964 14bd 771a acbd ec40 283c 799c 6f3c
00000190: d685 87bd 29c7 b53d 2deb b93d 6d27 3e3d
000001a0: b356 7ebd 1078 57bd c6e0 18bd dd3d 44bd
000001b0: 440d 5a3d 154f f5bb 06d8 693d 43a9 83bd
000001c0: eede 803d 62a9 f3bc ed7a efbb 9646 32bd
000001d0: a7f7 553d 0f04 833d dab3 9abd e784 80bd
-0.0063235145 0.078178756 0.016493963 0.0520929 0.058258563 0.017381275 -0.011558166 -0.0376289
0.03780293 -0.006453118 -0.048908222 0.055227306 -0.063790664 0.06291935 0.043919977 -0.049742956
-0.039607294 0.10000691 -0.031115785 -0.0449539 -0.03128482 -0.034568 0.0947777 0.07405575
0.082119115 0.031022862 0.08829546 0.065745704 0.06646642 -0.03893931 -0.0089896275 0.03596256
-0.06411888 -0.056049153 -0.03615258 0.06738512 -0.054034065 0.022915667 0.06527224 -0.021568567
-0.027195537 -0.032439634 -0.05031466 -0.040297426 0.122243956 0.062284566 0.050598823 0.09483545
0.060531095 -0.0057959254 0.0010675848 -0.051559553 0.0580479 -0.022098321 0.05160475 -0.018346347
0.033513576 0.019724717 0.053837486 -0.012879007 0.003627838 -0.06507577 -0.029989276 -0.020679973
0.08979726 0.12119119 0.03703026 -0.020195631 -0.057722326 -0.051748894 0.049041815 -0.021701578
0.06278521 -0.058580473 0.046657227 -0.026170364 -0.03193918 0.0803261 -0.025966268 -0.024420822
-0.00030247806 -0.015853569 -0.050149865 -0.058372546 0.0706149 0.029008752 -0.022321256 -0.03924462
0.049553324 -0.016382989 -0.0033299127 0.048668914 -0.07209178 -0.0778311 0.027551567 -0.04730544
-0.036228452 -0.08403485 0.010269385 0.014624708 -0.06617324 0.088758774 0.09078059 0.046424318
-0.0620944 -0.052604735 -0.037323736 -0.04791056 0.053235307 -0.007486234 0.05709078 -0.064287685
0.062925205 -0.029743854 -0.007308355 -0.043524347 0.052238133 0.063972585 -0.07553835 -0.06275349

fc2.weight f4 [60, 120]
00000000: 8c39 6e3d 40ee bcbd 96eb b3bc a589 503c
00000010: d9a6 3abd cb6c a4bd 284f 613d 2969 babd
00000020: df8b 983d a12a a9bc 4fd9 c93d 5262 48bc
00000030: e962 d4bc 28b4 3ebd 48cf 32be cec5 893d
00000040: f5a0 b7bc cf95 0fbd 4686 5e3d 7bd1 6cbd
00000050: 931f 70bd cbdd 723d db99 503e fcc3 bd3d
00000060: 3c00 d6bc 1d8f 3f3d 918f a0bd a4b4 83bd
00000070: 93db 443d a84c 323d adab c1bc 399f 83bd
00000080: e44f 0c3d 1296 8c3d 1ffb 9abd 7c0f 78bd
00000090: b06c 19bd 634c 1c3e ea12 02bc a150 5e3d
000000a0: 56ed 9a3d 9916 8c3d c500 99bd 6bdd 703c
000000b0: 1497 7ebd 7b0c 95bc 60e7 953d 6a09 6bbd
000000c0: baa5 573d 0ca5 aebc d693 9e3d f2da 6bbc
000000d0: b4d5 95bd be48 803c 9f45 34be 7984 b5bd
000000e0: 6317 bc3c 3d00 313d e658 d03c 865e b93d
000000f0: 4d2b af3d b7e1 a43b d08e 7a3d d525 f63c
00000100: 5645 013e 86fb 08bd 0d77 33bd 85ca 23bd
00000110: 4468 a2bc f601 a63d bcfb aebd 4959 263d
00000120: c4bb be3d e049 393e 1a3a 9cbd a296 58bc
00000130: 0838 83bd 6d9e b33d 2607 d53d 6236 fb3c
00000140: c195 58bc 4fbe b63d f6c4 0f3d 227e 573c
00000150: 13d1 373d e0cd 0f3e cbe1 34bd ce80 13bd
00000160: 1afd a03d 100d 2d3d 79d7 8ebc 46e5 cc3d
00000170: bcb8 043c 880e 29bd d612 76bd ea88 093d
00000180: 6b13 ccbc d7ed a63d f7bb b73d 2e43 b93c
00000190: 1d24 a23d e969 bb3d 9b27 f83c 6daf 1c3e
000001a0: a47f ae3d 98f8 7dbd a82b 0bbd d4f2 d13b
000001b0: afc2 233d 9c92 bb3d 3c46 33bd 0ad9 36bc
000001c0: 2aa4 2cbd 14d2 113d 4696 55bd 2b5b abbd
000001d0: 993b 613c 38b4 c5bd 072d 8bbd a654 9ebd
000001e0: c237 243d d8b4 7fbb c337 2f3d 28e0 ebbc
000001f0: 0968 9e3d c17d 883d 1387 97bc a006 2d3d
00000200: fa8c 023a d86a c43d 4261 38bd af1a 673d
00000210: 843f 013c de54 0dbe 735f a5bc 7365 223c
00000220: 109f 883d cc04 153e 9fee 3fbd 0219 ccbc
00000230: 9cfe edbc efe7 b5bc a991 923d 4b47 d4bc
00000240: 4e16 583b 9281 e43c 43e3 10bd 4673 8f3d
00000250: 12f6 173d 501e 3ebd d377 0d3d 04f6 71bc
00000260: b4d7 9c3d fbb3 ba3d 55ed b53d ccbc e93c
00000270: de78 09bd e0c9 123e 3b34 d33d c284 a9bd
00000280: b7e4 0d3d 66f6 98bd bdf5 e63c 2b2a 91bd
00000290: c58e 9a3c 9c3c 133d ed72 943c 7a43 f93d
000002a0: 5c4b cbbc 73a8 71bd 6331 12bc a1a1 833d
000002b0: a933 8b3d e751 bcbc 58cd b13d fcab 75bd
000002c0: ec7f aebc b59e 7c3d 739f 053d cfd3 a53c
000002d0: 4ed3 05be b3f0 97bd ed01 853d fb33 8cbd
000002e0: 9f36 c13d e6a0 973c 416c 05bc 4eec 203d
000002f0: 0855 e03c 4975 bfbd b9d2 e23d d70d 47bd
00000300: 6eb4 9bbd 4346 edbc 24e0 c33d 074c c93d
00000310: c23a 39bc 0974 1b3d 041f 033d fa7e 52bd
00000320: 3053 b83d dbd2 4c3d 80da dbbb 8cc3 02bd
00000330: a3dd 55bd 3faf 713d e4f3 70bd 15f8 02bd
00000340: 7d85 6c3d 07c9 553d 6148 82bd 4f19 5c3d
00000350: 2ca4 843b 1dd6 b3bd c5ea b43d ee14 7d3d
00000360: fa28 fb3d f090 5cbc 8ce3 7ebc cb08 6d3d
00000370: 90fa 203d 9e93 f4ba 428b 77bd 2fcb 863c
00000380: 547b 443c 688c 693d c794 05be 6d53 bf3b
00000390: 2592 0b3e 8757 8cbd c01f 79bd 71f6 a03d
000003a0: 5ef4 b8bd 6951 74bb 4820 f03c dd1b 4b3c
000003b0: 895a bebd 0543 23bd 4611 383c ba1a 75bd
000003c0: 3ae9 e33c 1667 c4bd 17b0 49bc ce39 01bd
000003d0: 4fb3 6a3d c6cd 723d 1243 cc3d 1f29 ec3c
000003e0: babd 44bb 071f a8bd 22ec ce3d fb34 bb3d
000003f0: 807a 72bd d702 74bd 75c6 83bd 9f4a 88bc
0.05816035 -0.0922513 -0.021962922 0.0127281295 -0.045569275 -0.08028563 0.05500713 -0.09102089
0.07448553 -0.02065021 0.098559014 -0.012230473 -0.02592607 -0.04655853 -0.17461884 0.067271814
-0.022415617 -0.035054978 0.054327272 -0.057816964 -0.05862386 0.05929355 0.20371191 0.09265897
-0.026123159 0.046767343 -0.07839883 -0.06430939 0.048060965 0.043530136 -0.023641432 -0.06426854
0.034255877 0.06864561 -0.07567429 -0.060561642 -0.037457168 0.15263514 -0.00793908 0.054276112
0.075647995 0.06840248 -0.0747085 0.014701228 -0.062155798 -0.018194428 0.07319522 -0.057382025
0.052648284 -0.021318935 0.07743041 -0.014395462 -0.07316151 0.015659686 -0.17604683 -0.08863158
0.02296037 0.043213118 0.025433015 0.09051232 0.08553181 0.00503179 0.061171353 0.030047337
0.12624106 -0.033442996 -0.043814708 -0.03998806 -0.019825108 0.08105843 -0.08544108 0.040612493
0.09313157 0.18094587 -0.076282695 -0.013219507 -0.064071715 0.08770452 0.10401754 0.03066558
-0.013219298 0.08923017 0.035099946 0.013152631 0.044877123 0.14043379 -0.044160645 -0.03601151
0.07860775 0.042248785 -0.01743673 0.10004668 0.008100685 -0.041273624 -0.060076557 0.033577837
-0.024911603 0.08150833 0.08971398 0.022615042 0.07917044 0.0915106 0.030292323 0.15301295
0.08520439 -0.062004656 -0.03397718 0.006407121 0.039980587 0.09158823 -0.043768153 -0.011160145
-0.042148747 0.035600737 -0.052145265 -0.08366998 0.013747119 -0.096535146 -0.06795698 -0.07730989
0.040092237 -0.0039017703 0.042777788 -0.02879341 0.07734687 0.06664611 -0.018497026 0.042242646
0.00049801136 0.09590691 -0.045014627 0.05642193 0.007888678 -0.13801906 -0.020187115 0.009911883
0.06670964 0.14552611 -0.046858426 -0.024914268 -0.029052071 -0.022205321 0.07156689 -0.025912901
0.003297228 0.027893815 -0.035372984 0.070044085 0.037099905 -0.046415627 0.0345381 -0.014768127
0.076583296 0.0911636 0.08883158 0.028532408 -0.033562534 0.14334822 0.103126965 -0.08277275
0.034641948 -0.07468872 0.028193349 -0.07088121 0.018866906 0.035946473 0.018121207 0.12171073
-0.024816208 -0.058998536 -0.0089229075 0.06427313 0.06796963 -0.022988273 0.08681744 -0.05997847
-0.021301232 0.061674792 0.032622766 0.0202426 -0.13068888 -0.074189566 0.06494508 -0.06845852
0.09434246 0.01850934 -0.0081434855 0.039287858 0.027384296 -0.09348542 0.110753484 -0.048597183
-0.076027736 -0.028964167 0.09564236 0.09828954 -0.011305513 0.037952457 0.032012 -0.051390626
0.09000242 0.050005775 -0.006709397 -0.03192477 -0.052213322 0.05900502 -0.058826342 -0.03197487
0.05774449 0.052193668 -0.063614614 0.053735074 0.004047891 -0.08781073 0.08833841 0.06178754
0.12263675 -0.01346229 -0.015557181 0.057869714 0.039301455 -0.0018659716 -0.06043554 0.016454307
0.011992294 0.057018667 -0.13045035 0.0058388025 0.13629968 -0.06852632 -0.060821295 0.07859505
-0.09030984 -0.003727997 0.029312268 0.01239678 -0.09294612 -0.039858837 0.011234587 -0.05983994
0.027821172 -0.095899746 -0.0123100495 -0.031549267 0.05729991 0.059278272 0.0997373 0.028828202
-0.0030020312 -0.08209043 0.101036325 0.091409646 -0.059198856 -0.05957302 -0.06434337 -0.016637145

fc2.bias f4 [60]
00000000: 0a02 c13d 9f36 c83c bf34 933d 5ff3 0abd
00000010: cefc c1bd fe8c 55bd 5d76 1a3d 1878 c33d
00000020: dbda 1c3e f769 a9bd 4270 b3bd f966 303d
00000030: 4549 343c a42e dabd 4e21 093e ee21 103e
00000040: 935f e73d 0a15 adbc d9a5 4b3e 78be 9d3c
00000050: dac1 2d3d 5fb5 2fbd 0a47 973d 4ec9 273b
00000060: 9907 123d a3d5 cabd e006 1abd c4e9 2c3e
00000070: ed60 b03d bb00 9ebd 6980 72bd a6eb ad3d
00000080: db5e 5bbd 1deb 473d 8e90 283d 988b a13d
00000090: a6c3 f03b 1fc1 70bd 94c6 ca3c 27a4 b6bd
000000a0: 5ec9 6dbd a9f5 91bc 107e 213d 7637 e0bc
000000b0: 58d4 4e3d cda1 2fbd eca8 72bb 6ca1 3fbd
000000c0: dd5a 1fbd 6329 753d ccdd 4bbd cdfc 3b3d
000000d0: 1f8b b93d 7fc6 713d 22f8 90bd 4852 253e
000000e0: 8fa3 853c 3ee0 1cbc 39e3 c83d b608 cf3d
0.09424217 0.024440108 0.07187795 -0.033923503 -0.09472047 -0.052136414 0.037710536 0.095443904
0.15317862 -0.08272164 -0.08761646 0.043066952 0.011003797 -0.10653427 0.13391611 0.14075443
0.11297526 -0.021128196 0.19887485 0.019255862 0.0424212 -0.04289758 0.073865965 0.0025602165
0.035651777 -0.09904029 -0.037604213 0.1688605 0.08612237 -0.07714983 -0.059204493 0.08492212
-0.053557258 0.048808206 0.041153483 0.078879535 0.007347542 -0.058777925 0.024752893 -0.08918028
-0.058053367 -0.017817335 0.039426863 -0.027370196 0.050495476 -0.042878915 -0.0037026955 -0.046784803
-0.038905013 0.059853923 -0.04977207 0.045895386 0.09059738 0.05902719 -0.070785776 0.16144669
0.016313342 -0.009574948 0.09808964 0.10109083

out.weight f4 [10, 60]
00000000: 9123 16be 16b8 ad3d e150 18be 5058 85bc
00000010: aaaa 503d bc0c 433d 1373 8e3c 64c9 523d
00000020: 10e3 d3bd dab5 023e a19e 74bd eebb a2bc
00000030: 4385 a5bd c230 0a3e 1cdf 763e 871a 50bd
00000040: 9284 963c 66ac 7b3d 604b a53e de11 ce3d
00000050: 579a 03be 414d db3b cae5 56bd fc42 613d
00000060: f378 943d 695b ddbc 3431 793d 712f 5dbe
00000070: 1091 093e b2d1 81be fd68 06be 9eff 16be
00000080: 9d3d 0c3d a2fe f9bd 44d8 8f3d 7156 0f3e
00000090: 9134 d83d 961b 0fbb 431f 753e be36 143c
000000a0: fd95 5e3d ce13 173c 7be6 b33d 1c37 48bd
000000b0: 5126 06be fe83 bd3d 13a4 10be a5cf 423e
000000c0: 3cb5 c6bd cba7 debd 72d1 9f3c 9887 2c3d
000000d0: cc2f 3fbd ba81 1fbe 3fa1 e0bd a0b0 453e
000000e0: 2fac 2abb f3b5 b3bd 8e2d 2e3e 33fb 993d
000000f0: 5f05 a23d da45 22be d863 1abe e3b3 85bd
00000100: 4079 44bc 2eeb 843d 414a e03c b264 9d3d
00000110: 77cf acbe 7abb 1ebe 71bf 803c 9f47 2cbe
00000120: e56a 91be e535 8d3e cfd1 ef3e 0066 98be
00000130: d58b f5bd 3261 773d e5c8 17be 507d 153e
00000140: 1832 723d 86df e33c 560b dc3e 1ac0 edbd
00000150: f6ec df3d 8cde bc3d e794 17bd 973e fbbd
00000160: 74ca 21be d185 873e 6807 a13d 8c22 7d3d
00000170: 888f 48be a948 873d 0897 f6bd b2c2 20be
00000180: 5f74 553d 4e5d cd3c 9dfa 853d 1b47 80be
00000190: 5299 15bc 4696 c9bd 258a 7dbe 9cd9 fd3c
000001a0: 22dc 983e d23c 4ebc 8d29 c63c 6de5 203d
000001b0: 122e 98bd 1878 45bd ce0e 743d 30cb 1e3d
000001c0: ecd5 01be 8f74 11bc 47e2 343d 5559 9abc
000001d0: 762e e23d b157 6a3d a886 7f3c 5a95 70be
000001e0: e2f0 a1be 0b03 873d 7a93 1abe 3bc1 f4bd
000001f0: 680b f9bd 682d a83d a596 a13d f889 073e
00000200: 9b02 28bc c28b 34be d2c9 02be 3bda 6d3d
00000210: c007 afbd 2fa8 afbd 1fd5 03bf 5d3f ecbc
00000220: 91a4 6ebe 1289 a1bd d201 803e 6490 f83d
00000230: c241 713d e09d 78bd 3096 12bb fd83 56bd
00000240: 2368 cfbd 16d8 e53a 3140 583d 1510 973d
00000250: f51e 4bbe 090a a7bd b245 4dbd 0e12 bd3d
00000260: 8478 b13d 80f1 1ebe c88a a13d a88c b83e
00000270: 944c afbc 72ca 973d 4db5 093e 4468 f4bc
00000280: 9039 913d 9112 1abd da02 04bd f9d7 a33d
00000290: f4d3 893d df18 dd3d ff02 18bd 11a2 00be
000002a0: ceae bdbd 543d 8fbd f025 f03d 3321 943c
000002b0: c728 593c 7e3c 633d 5354 1bbe ca06 973e
000002c0: 37b0 803e 3f23 4cbd b928 0e3d e95e 833e
000002d0: a8b5 5bbe 2ccf d23d 08e3 37be b9d8 77bc
000002e0: 0dda da3b 74a0 87bd daae a93a 17c0 26be
000002f0: 0b51 f6bd 138e 353d 1076 80bd 43f8 a9bd
00000300: 3248 3a3e e3c5 e7bd 33b6 3b3e 9e22 613d
00000310: 2314 9d3a ab06 a3bc bc15 29bc 14c1 25bd
00000320: 7aba efbd c54c e13d 9e4e d5bc dc10 01be
00000330: 78a4 06be 66ae f33d 5bb5 a1bd 581b 5bbe
00000340: 4b06 2fbe 644e 763c a7d8 c1bb f783 92bd
00000350: aad2 5cbd 2373 8e3e 18cc ed39 8989 34be
00000360: 40c7 db3d 140b 06be d9d1 403e 1652 7ebd
00000370: 015c 543d 15f2 c73d d688 ac3d 9c56 633b
00000380: 4113 da3d 2d89 bf3c 565a fbbd c31a 0dbe
00000390: aa04 cebd 1e57 1d3e e7dc 953d 4414 91bd
000003a0: 1da0 ba3d fb44 223e 1a42 893c 2216 b93e
000003b0: db5c 8ebd 07a1 b33d 6ce6 39be 2683 1b3e
000003c0: e5ad ab3c d530 9ebc d1eb 81be 584b 5fbd
000003d0: 79e7 fe3d ea34 dabd e939 cb3d aa56 933c
000003e0: 3f4f b2bd eb95 a3bd 9a15 cbbd 97d1 22be
000003f0: 38ad 633e aa74 90bd 2458 83bd b563 83bd
-0.14662005 0.08482377 -0.14874603 -0.016277462 0.050944008 0.047619566 0.017388856 0.051461592
-0.10346043 0.12764683 -0.059721593 -0.019865002 -0.08082058 0.13495162 0.24108547 -0.05080655
0.018373761 0.06144371 0.3228407 0.10062002 -0.12851845 0.006692559 -0.052465238 0.054995522
0.07249632 -0.027021127 0.06083794 -0.21600129 0.13434243 -0.25355297 -0.13125987 -0.14745948
0.034238447 -0.122067705 0.07023671 0.13997819 0.10556901 -0.002183651 0.23937707 0.009046255
0.05434226 0.00922103 0.08784195 -0.04888068 -0.13100554 0.09253691 -0.1412509 0.19024523
-0.097025365 -0.10871848 0.019509051 0.0421215 -0.046676442 -0.1557683 -0.10968255 0.19305658
-0.002604257 -0.087749384 0.17009565 0.075186156 0.07911181 -0.15846959 -0.1507715 -0.06528451
-0.011991799 0.064901695 0.027379157 0.07685222 -0.33752033 -0.15501204 0.015716286 -0.16824196
-0.28401867 0.2758018 0.4683976 -0.2976532 -0.119895615 0.060395427 -0.14822729 0.14598584
0.059129804 0.027816545 0.429774 -0.11608906 0.109338686 0.09222135 -0.03700724 -0.122677974
-0.15799886 0.2646928 0.07862741 0.061800525 -0.19586003 0.06605656 -0.12040526 -0.1569927
0.052112933 0.025068905 0.06541941 -0.2505425 -0.009130793 -0.098431155 -0.24759729 0.030987553
0.29855448 -0.012587743 0.024189735 0.039281297 -0.07430662 -0.048210233 0.05958443 0.038767993
-0.12679261 -0.008877887 0.044161107 -0.018841425 0.11044018 0.057212535 0.015596069 -0.23494473
-0.31629092 0.06592377 -0.1509532 -0.11950918 -0.12160379 0.082117856 0.07890061 0.13236225
-0.010254527 -0.17631438 -0.12772301 0.05806945 -0.085464 -0.08577 -0.5149707 -0.028838808
-0.23304965 -0.07887472 0.2500139 0.12136915 0.058900602 -0.060697436 -0.002236735 -0.052371968
-0.101272844 0.0017535712 0.052795593 0.07376114 -0.19836028 -0.08156211 -0.050115295 0.09231959
0.08665565 -0.15521812 0.078877985 0.36044812 -0.02139882 0.0741166 0.13448067 -0.029834874
0.07091057 -0.037615363 -0.032229282 0.08000178 0.0672988 0.107957594 -0.037112232 -0.12561823
-0.09261857 -0.06994119 0.11725986 0.018082237 0.013254351 0.05547761 -0.15168886 0.29497367
0.2513444 -0.0498383 0.034706805 0.25658348 -0.21456015 0.10293421 -0.179577 -0.015127354
0.0066788257 -0.06622401 0.0012945787 -0.16284214 -0.120271765 0.044324946 -0.06272519 -0.08299305
0.18191603 -0.11317041 0.18331222 0.054964654 0.0011984151 -0.01990064 -0.010320123 -0.040467337
-0.117054895 0.11000971 -0.026038464 -0.12604088 -0.13148677 0.11898498 -0.07895919 -0.2139715
-0.17092244 0.015033338 -0.0059157196 -0.071540765 -0.053911842 0.27822217 0.00045356224 -0.1763059
0.10731363 -0.13090163 0.1883005 -0.062090002 0.051845554 0.0976297 0.08424537 0.0034689074
0.10648204 0.02338084 -0.122730896 -0.1377974 -0.10059483 0.15365264 0.073175244 -0.070839435
0.091125704 0.15846626 0.016755152 0.36149698 -0.069513045 0.08770948 -0.18154305 0.15186748
0.020956943 -0.019310394 -0.25375226 -0.054515213 0.12446494 -0.10654624 0.09923155 0.01798566
-0.08706521 -0.07987579 -0.099162295 -0.15900265 0.22234046 -0.07053502 -0.06413296 -0.06415502

out.bias f4 [10]
00000000: 0e1e 8b3d 9a1f bcbb 7481 793d 3d73 2ebd
00000010: e66c 66be b20e 3b3e 59fe 903e 10e4 d83d
00000020: 9be9 0cbe ac62 94be
0.06792842 -0.005741072 0.06091447 -0.04259037 -0.22502479 0.18267325 0.28319052 0.105903745
-0.13760988 -0.2898153
